…
tor">=</span><span class="token string">'softmax'</span><span class="token punctuation">)</span><span class="token punctuation">)</span>model<span class="token punctuation">.</span>summary<span class="token punctuation">(</span><span class="token punctuation">)</span><span aria-hidden="true" class="line-numbers-rows"><span></span><span></span></span></code></pre><pre><code>_________________________________________________________________Layer (type)                 Output Shape              Param #   =================================================================conv2d_5 (Conv2D)            (None, 32, 32, 32)        896       _________________________________________________________________dropout_9 (Dropout)          (None, 32, 32, 32)        0         _________________________________________________________________max_pooling2d_4 (MaxPooling2 (None, 16, 16, 32)        0         _________________________________________________________________conv2d_6 (Conv2D)            (None, 16, 16, 64)        18496     _________________________________________________________________dropout_10 (Dropout)         (None, 16, 16, 64)        0         _________________________________________________________________max_pooling2d_5 (MaxPooling2 (None, 8, 8, 64)          0         _________________________________________________________________flatten_3 (Flatten)          (None, 4096)              0         _________________________________________________________________dropout_11 (Dropout)         (None, 4096)              0         _________________________________________________________________dense_5 (Dense)              (None, 1024)              4195328   _________________________________________________________________dropout_12 (Dropout)         (None, 1024)              0         _________________________________________________________________dense_6 (Dense)              (None, 10)                10250     =================================================================Total params: 4,224,970Trainable params: 4,224,970Non-trainable params: 0_________________________________________________________________</code></pre><pre class="line-numbers language-python"><code class="language-python">model<span class="token punctuation">.</span>compile<span class="token punctuation">(</span>loss<span class
…
ad of `keep_prob`. Rate should be set to `rate = 1 - keep_prob`.</code></pre><pre class="line-numbers language-python"><code class="language-python">model<span class="token punctuation">.</span>summary<span class="token punctuation">(</span><span class="token punctuation">)</span><span aria-hidden="true" class="line-numbers-rows"><span></span></span></code></pre><pre><code>_________________________________________________________________Layer (type)                 Output Shape              Param #   =================================================================embedding_1 (Embedding)      (None, 100, 32)           64000     _________________________________________________________________dropout_1 (Dropout)          (None, 100, 32)           0         _________________________________________________________________flatten_1 (Flatten)          (None, 3200)              0         _________________________________________________________________dense_1 (Dense)              (None, 256)               819456    _________________________________________________________________dropout_2 (Dropout)          (None, 256)               0         _________________________________________________________________dense_2 (Dense)              (None, 1)                 257       =================================================================Total params: 883,713Trainable params: 883,713Non-trainable params: 0_________________________________________________________________</code></pre><pre class="line-numbers language-python"><code class="language-python">model<span class="token punctuation">.</span>compile<span class="token punctuation">(</span>loss<span class="
…
span><span></span><span></span><span></span><span></span></span></code></pre><pre class="line-numbers language-python"><code class="language-python">model<span class="token punctuation">.</span>summary<span class="token punctuation">(</span><span class="token punctuation">)</span><span aria-hidden="true" class="line-numbers-rows"><span></span></span></code></pre><pre><code>_________________________________________________________________Layer (type)                 Output Shape              Param #   =================================================================embedding_2 (Embedding)      (None, 380, 32)           121600    _________________________________________________________________dropout_3 (Dropout)          (None, 380, 32)           0         _________________________________________________________________flatten_2 (Flatten)          (None, 12160)             0         _________________________________________________________________dense_3 (Dense)              (None, 256)               3113216   _________________________________________________________________dropout_4 (Dropout)          (None, 256)               0         _________________________________________________________________dense_4 (Dense)              (None, 1)                 257       =================================================================Total params: 3,235,073Trainable params: 3,235,073Non-trainable params: 0_________________________________________________________________</code></pre><script>        document.querySelectorAll('.github-emoji')          .forEach(el => {            if (!el.dataset.src) { return; }            const img = document.createElement('i
…
span></span><span></span><span></span></span></code></pre><pre class="line-numbers language-python"><code class="language-python">model<span class="token punctuation">.</span>summary<span class="token punctuation">(</span><span class="token punctuation">)</span><span aria-hidden="true" class="line-numbers-rows"><span></span></span></code></pre><pre><code>Model: "sequential"_________________________________________________________________Layer (type)                 Output Shape              Param #   =================================================================conv2d (Conv2D)              (None, 28, 28, 16)        416       _________________________________________________________________max_pooling2d (MaxPooling2D) (None, 14, 14, 16)        0         _________________________________________________________________dropout (Dropout)            (None, 14, 14, 16)        0         _________________________________________________________________conv2d_1 (Conv2D)            (None, 14, 14, 32)        12832     _________________________________________________________________max_pooling2d_1 (MaxPooling2 (None, 7, 7, 32)          0         _________________________________________________________________dropout_1 (Dropout)          (None, 7, 7, 32)          0         _________________________________________________________________conv2d_2 (Conv2D)            (None, 7, 7, 64)          51264     _________________________________________________________________conv2d_3 (Conv2D)            (None, 7, 7, 128)         204928    _________________________________________________________________max_pooling2d_2 (MaxPooling2 (None, 3, 3, 128)         0         _________________________________________________________________dropout_2 (Dropout)          (None, 3, 3, 128)         0         _________________________________________________________________flatten (Flatten)            (None, 1152)              0         _________________________________________________________________dense (Dense)                (None, 128)               147584    _________________________________________________________________dropout_3 (Dropout)          (None, 128)               0         _________________________________________________________________dense_1 (Dense)              (None, 10)                1290      =================================================================Total params: 418,314Trainable params: 418,314Non-trainable params: 0_________________________________________________________________</code></pre><pre class="line-numbers language-python"><code class="language-python"><span class="token comment" spellcheck="true"># 训练模型</span>model<span class="token punctuation">.</span>compil
…
numbers-rows"><span></span><span></span><span></span></span></code></pre><pre class="line-numbers language-python"><code class="language-python">model_rnn<span class="token punctuation">.</span>summary<span class="token punctuation">(</span><span class="token punctuation">)</span><span aria-hidden="true" class="line-numbers-rows"><span></span></span></code></pre><pre><code>_________________________________________________________________Layer (type)                 Output Shape              Param #   =================================================================embedding_1 (Embedding)      (None, 100, 32)           64000     _________________________________________________________________dropout_1 (Dropout)          (None, 100, 32)           0         _________________________________________________________________simple_rnn_1 (SimpleRNN)     (None, 16)                784       _________________________________________________________________dense_1 (Dense)              (None, 256)               4352      _________________________________________________________________dropout_2 (Dropout)          (None, 256)               0         _________________________________________________________________dense_2 (Dense)              (None, 1)                 257       =================================================================Total params: 69,393Trainable params: 69,393Non-trainable params: 0_________________________________________________________________</code></pre><pre class="line-numbers language-python"><code class="language-python">model_rnn<span class="token punctuation">.</span>compile<span class="token punctuation">(</span>loss<span class
…
umbers-rows"><span></span><span></span><span></span></span></code></pre><pre class="line-numbers language-python"><code class="language-python">model_lstm<span class="token punctuation">.</span>summary<span class="token punctuation">(</span><span class="token punctuation">)</span><span aria-hidden="true" class="line-numbers-rows"><span></span></span></code></pre><pre><code>_________________________________________________________________Layer (type)                 Output Shape              Param #   =================================================================embedding_2 (Embedding)      (None, 100, 32)           64000     _________________________________________________________________dropout_3 (Dropout)          (None, 100, 32)           0         _________________________________________________________________lstm_1 (LSTM)                (None, 32)                8320      _________________________________________________________________dense_3 (Dense)              (None, 256)               8448      _________________________________________________________________dropout_4 (Dropout)          (None, 256)               0         _________________________________________________________________dense_4 (Dense)              (None, 1)                 257       =================================================================Total params: 81,025Trainable params: 81,025Non-trainable params: 0_________________________________________________________________</code></pre><pre class="line-numbers language-python"><code class="language-python">scores<span class="token operator">=</span>model_rnn<span class="token punctuation">.</span>evaluate<span class
…
