…
n class="token punctuation">)</span><span aria-hidden="true" class="line-numbers-rows"><span></span><span></span><span></span><span></span><span></span><span></span><span></span><span></span><span></span><span></span><span></span><span></span><span></span><span></span><span></span><span></span><span></span><span></span><span></span><span></span><span></span><span></span><span></span><span></span><span></span><span></span><span></span><span></span><span></span><span></span><span></span><span></span><span></span><span></span><span></span><span></span></span></code></pre><pre><code>LeNet(  (conv1): Conv2d(1, 6, kernel_size=(5, 5), stride=(1, 1))  (conv2): Conv2d(6, 16, kernel_size=(5, 5), stride=(1, 1))  (fc1): Linear(in_features=640, out_features=120, bias=True)  (fc2): Linear(in_features=120, out_features=84, bias=True)  (fc3): Linear(in_features=84, out_features=10, bias=True))</code></pre><h4 id="AlexNet"><a href="#AlexNet" class="headerlink" title="AlexNet"></a>AlexNet</h4><ul><li>用rectified linear utils得到非线性</li><li>使用dropout在训练期间有选择的忽略单个神经单元，来缓解过拟合</li><li>重叠最大池，避免平均池的平均效果</li><li>使用GPU NVDIA可以有效地减少训练时间，可以用于更大的数据集和图像上</li></ul><pre class="line-numbers language-python"><code class="language-python"><span class="token commen
…
lass="token operator">=</span> torchvision<span class="token punctuation">.</span>models<span class="token punctuation">.</span>alexnet<span class="token punctuation">(</span>pretrained<span class="token operator">=</span><span class="token boolean">False</span><span class="token punctuation">)</span><span class="token keyword">print</span><span class="token punctuation">(</span>model<span class="token punctuation">)</span><span aria-hidden="true" class="line-numbers-rows"><span></span><span></span><span></span><span></span></span></code></pre><pre><code>AlexNet(  (features): Sequential(    (0): Conv2d(3, 64, kernel_size=(11, 11), stride=(4, 4), padding=(2, 2))    (1): ReLU(inplace)    (2): MaxPool2d(kernel_size=3, stride=2, padding=0, dilation=1, ceil_mode=False)    (3): Conv2d(64, 192, kernel_size=(5, 5), stride=(1, 1), padding=(2, 2))    (4): ReLU(inplace)    (5): MaxPool2d(kernel_size=3, stride=2, padding=0, dilation=1, ceil_mode=False)    (6): Conv2d(192, 384, kernel_size=(3, 3), stride=(1, 1), padding=(1, 1))    (7): ReLU(inplace)    (8): Conv2d(384, 256, kernel_size=(3, 3), stride=(1, 1), padding=(1, 1))    (9): ReLU(inplace)    (10): Conv2d(256, 256, kernel_size=(3, 3), stride=(1, 1), padding=(1, 1))    (11): ReLU(inplace)    (12): MaxPool2d(kernel_size=3, stride=2, padding=0, dilation=1, ceil_mode=False)  )  (avgpool): AdaptiveAvgPool2d(output_size=(6, 6))  (classifier): Sequential(    (0): Dropout(p=0.5)    (1): Linear(in_features=9216, out_features=4096, bias=True)    (2): ReLU(inplace)    (3): Dropout(p=0.5)    (4): Linear(in_features=4096, out_features=4096, bias=True)    (5): ReLU(inplace)    (6): Linear(in_features=4096, out_features=1000, bias=True)  ))</code></pre><h4 id="VGG"><a href="#VGG" class="headerlink" title="VGG"></a>VGG</h4><ul><li>每个卷积层中使用更小的3x3 filters，并将它们组成卷积序列</li><li>多个3x3卷积序列可以模拟更大的接受场效果</li><li>每次的图像像素缩小一倍，卷积核的数量增加一倍</li></ul><pre class="line-numbers language-python"><code class="language-python"><span class="token comment" spellcheck="true"># VGG16</span>model <span class="token operator">=</span> torchvision<span class="token punctuation">.</span>models<span class="token punctuation">.</span>vgg16<span class="token punctuation">(</span>pretrained<span class="token operator">=</span><span class="token boolean">False</span><span class="token punctuation">)</span><span class="token keyword">print</span><span class="token punctuation">(</span>model<span class="token punctuation">)</span><span aria-hidden="true" class="line-numbers-rows"><span></span><span></span><span></span></span></code></pre><pre><code>VGG(  (features): Sequential(    (0): Conv2d(3, 64, kernel_size=(3, 3), stride=(1, 1), padding=(1, 1))    (1): ReLU(inplace)    (2): Conv2d(64, 64, kernel_size=(3, 3), stride=(1, 1), padding=(1, 1))    (3): ReLU(inplace)    (4): MaxPool2d(kernel_size=2, stride=2, padding=0, dilation=1, ceil_mode=False)    (5): Conv2d(64, 128, kernel_size=(3, 3), stride=(1, 1), padding=(1, 1))    (6): ReLU(inplace)    (7): Conv2d(128, 128, kernel_size=(3, 3), stride=(1, 1), padding=(1, 1))    (8): ReLU(inplace)    (9): MaxPool2d(kernel_size=2, stride=2, padding=0, dilation=1, ceil_mode=False)    (10): Conv2d(128, 256, kernel_size=(3, 3), stride=(1, 1), padding=(1, 1))    (11): ReLU(inplace)    (12): Conv2d(256, 256, kernel_size=(3, 3), stride=(1, 1), padding=(1, 1))    (13): ReLU(inplace)    (14): Conv2d(256, 256, kernel_size=(3, 3), stride=(1, 1), padding=(1, 1))    (15): ReLU(inplace)    (16): MaxPool2d(kernel_size=2, stride=2, padding=0, dilation=1, ceil_mode=False)    (17): Conv2d(256, 512, kernel_size=(3, 3), stride=(1, 1), padding=(1, 1))    (18): ReLU(inplace)    (19): Conv2d(512, 512, kernel_size=(3, 3), stride=(1, 1), padding=(1, 1))    (20): ReLU(inplace)    (21): Conv2d(512, 512, kernel_size=(3, 3), stride=(1, 1), padding=(1, 1))    (22): ReLU(inplace)    (23): MaxPool2d(kernel_size=2, stride=2, padding=0, dilation=1, ceil_mode=False)    (24): Conv2d(512, 512, kernel_size=(3, 3), stride=(1, 1), padding=(1, 1))    (25): ReLU(inplace)    (26): Conv2d(512, 512, kernel_size=(3, 3), stride=(1, 1), padding=(1, 1))    (27): ReLU(inplace)    (28): Conv2d(512, 512, kernel_size=(3, 3), stride=(1, 1), padding=(1, 1))    (29): ReLU(inplace)    (30): MaxPool2d(kernel_size=2, stride=2, padding=0, dilation=1, ceil_mode=False)  )  (avgpool): AdaptiveAvgPool2d(output_size=(7, 7))  (classifier): Sequential(    (0): Linear(in_features=25088, out_features=4096, bias=True)    (1): ReLU(inplace)    (2): Dropout(p=0.5)    (3): Linear(in_features=4096, out_features=4096, bias=True)    (4): ReLU(inplace)    (5): Dropout(p=0.5)    (6): Linear(in_features=4096, out_features=1000, bias=True)  ))</code></pre><h4 id="GoogLeNet"><a href="#GoogLeNet" class="headerlink" title="GoogLeNet"></a>GoogLeNet</h4><ul><li>使用1x1卷积块（NiN）来减少特征数量，这通常称为“瓶颈”，可以减少深层神界那个网络的计算负担</li><li>每个层池化之前，增加feature maps，增加每一层的宽度来增多特征的组合性</li></ul><pre class="line-numbers language-python"><code class="language-python">model <span class="token operator">=</span> torchvisio
…
thon"><code class="language-python">model <span class="token operator">=</span> torchvision<span class="token punctuation">.</span>models<span class="token punctuation">.</span>resnet18<span class="token punctuation">(</span>pretrained<span class="token operator">=</span><span class="token boolean">False</span><span class="token punctuation">)</span><span class="token keyword">print</span><span class="token punctuation">(</span>model<span class="token punctuation">)</span><span aria-hidden="true" class="line-numbers-rows"><span></span><span></span></span></code></pre><pre><code>ResNet(  (conv1): Conv2d(3, 64, kernel_size=(7, 7), stride=(2, 2), padding=(3, 3), bias=False)  (bn1): BatchNorm2d(64, eps=1e-05, momentum=0.1, affine=True, track_running_stats=True)  (relu): ReLU(inplace)  (maxpool): MaxPool2d(kernel_size=3, stride=2, padding=1, dilation=1, ceil_mode=False)  (layer1): Sequential(    (0): BasicBlock(      (conv1): Conv2d(64, 64, kernel_size=(3, 3), stride=(1, 1), padding=(1, 1), bias=False)      (bn1): BatchNorm2d(64, eps=1e-05, momentum=0.1, affine=True, track_running_stats=True)      (relu): ReLU(inplace)      (conv2): Conv2d(64, 64, kernel_size=(3, 3), stride=(1, 1), padding=(1, 1), bias=False)      (bn2): BatchNorm2d(64, eps=1e-05, momentum=0.1, affine=True, track_running_stats=True)    )    (1): BasicBlock(      (conv1): Conv2d(64, 64, kernel_size=(3, 3), stride=(1, 1), padding=(1, 1), bias=False)      (bn1): BatchNorm2d(64, eps=1e-05, momentum=0.1, affine=True, track_running_stats=True)      (relu): ReLU(inplace)      (conv2): Conv2d(64, 64, kernel_size=(3, 3), stride=(1, 1), padding=(1, 1), bias=False)      (bn2): BatchNorm2d(64, eps=1e-05, momentum=0.1, affine=True, track_running_stats=True)    )  )  (layer2): Sequential(    (0): BasicBlock(      (conv1): Conv2d(64, 128, kernel_size=(3, 3), stride=(2, 2), padding=(1, 1), bias=False)      (bn1): BatchNorm2d(128, eps=1e-05, momentum=0.1, affine=True, track_running_stats=True)      (relu): ReLU(inplace)      (conv2): Conv2d(128, 128, kernel_size=(3, 3), stride=(1, 1), padding=(1, 1), bias=False)      (bn2): BatchNorm2d(128, eps=1e-05, momentum=0.1, affine=True, track_running_stats=True)      (downsample): Sequential(        (0): Conv2d(64, 128, kernel_size=(1, 1), stride=(2, 2), bias=False)        (1): BatchNorm2d(128, eps=1e-05, momentum=0.1, affine=True, track_running_stats=True)      )    )    (1): BasicBlock(      (conv1): Conv2d(128, 128, kernel_size=(3, 3), stride=(1, 1), padding=(1, 1), bias=False)      (bn1): BatchNorm2d(128, eps=1e-05, momentum=0.1, affine=True, track_running_stats=True)      (relu): ReLU(inplace)      (conv2): Conv2d(128, 128, kernel_size=(3, 3), stride=(1, 1), padding=(1, 1), bias=False)      (bn2): BatchNorm2d(128, eps=1e-05, momentum=0.1, affine=True, track_running_stats=True)    )  )  (layer3): Sequential(    (0): BasicBlock(      (conv1): Conv2d(128, 256, kernel_size=(3, 3), stride=(2, 2), padding=(1, 1), bias=False)      (bn1): BatchNorm2d(256, eps=1e-05, momentum=0.1, affine=True, track_running_stats=True)      (relu): ReLU(inplace)      (conv2): Conv2d(256, 256, kernel_size=(3, 3), stride=(1, 1), padding=(1, 1), bias=False)      (bn2): BatchNorm2d(256, eps=1e-05, momentum=0.1, affine=True, track_running_stats=True)      (downsample): Sequential(        (0): Conv2d(128, 256, kernel_size=(1, 1), stride=(2, 2), bias=False)        (1): BatchNorm2d(256, eps=1e-05, momentum=0.1, affine=True, track_running_stats=True)      )    )    (1): BasicBlock(      (conv1): Conv2d(256, 256, kernel_size=(3, 3), stride=(1, 1), padding=(1, 1), bias=False)      (bn1): BatchNorm2d(256, eps=1e-05, momentum=0.1, affine=True, track_running_stats=True)      (relu): ReLU(inplace)      (conv2): Conv2d(256, 256, kernel_size=(3, 3), stride=(1, 1), padding=(1, 1), bias=False)      (bn2): BatchNorm2d(256, eps=1e-05, momentum=0.1, affine=True, track_running_stats=True)    )  )  (layer4): Sequential(    (0): BasicBlock(      (conv1): Conv2d(256, 512, kernel_size=(3, 3), stride=(2, 2), padding=(1, 1), bias=False)      (bn1): BatchNorm2d(512, eps=1e-05, momentum=0.1, affine=True, track_running_stats=True)      (relu): ReLU(inplace)      (conv2): Conv2d(512, 512, kernel_size=(3, 3), stride=(1, 1), padding=(1, 1), bias=False)      (bn2): BatchNorm2d(512, eps=1e-05, momentum=0.1, affine=True, track_running_stats=True)      (downsample): Sequential(        (0): Conv2d(256, 512, kernel_size=(1, 1), stride=(2, 2), bias=False)        (1): BatchNorm2d(512, eps=1e-05, momentum=0.1, affine=True, track_running_stats=True)      )    )    (1): BasicBlock(      (conv1): Conv2d(512, 512, kernel_size=(3, 3), stride=(1, 1), padding=(1, 1), bias=False)      (bn1): BatchNorm2d(512, eps=1e-05, momentum=0.1, affine=True, track_running_stats=True)      (relu): ReLU(inplace)      (conv2): Conv2d(512, 512, kernel_size=(3, 3), stride=(1, 1), padding=(1, 1), bias=False)      (bn2): BatchNorm2d(512, eps=1e-05, momentum=0.1, affine=True, track_running_stats=True)    )  )  (avgpool): AdaptiveAvgPool2d(output_size=(1, 1))  (fc): Linear(in_features=512, out_features=1000, bias=True))</code></pre><script>        document.querySelectorAll('.github-emoji')          .forEach(el => {            if (!el.dataset.src) { return; }            const img = document.createElement('img');            img.style = 'display:none !important;';            img.src = el.dataset.src;            img.addEventListener('error', () => {              img.rem
…
